example/text_classification/assets/test/permute_uint8.tflite (tflite, 780 bytes, 1 tensors)

Const/transpose u1 [4, 4] scale=0.003921569 zero_point=0
0.0 0.0 0.0 1.0 0.0 0.0 1.0 0.0
0.0 1.0 0.0 0.0 1.0 0.0 0.0 0.0
00000000: 0000 00ff 0000 ff00 00ff 0000 ff00 0000
